model/best_lstm_model1.pth (torch, 74123 bytes, 10 tensors)

lstm.weight_ih_l0 f4 [256, 1]
-0.19807178 -0.08834625 -0.30021316 -0.15762907 0.021243796 -0.03406239 -0.04441032 0.011608022
-0.14124912 0.104268834 -0.022491543 -0.061336458 -0.32700798 -0.13927668 -0.140673 0.01651922
-0.13694198 0.028565463 -0.26857898 0.00741242 -0.14171171 0.06753269 -0.18186772 -0.049011134
0.07814177 -0.13368492 -0.18032794 -0.09408743 -0.089557946 -0.28224608 -0.0794885 -0.149275
-0.3009415 -0.1628055 -0.094420746 0.03947326 -0.17796278 -0.20716792 -0.22860512 -0.16738778
-0.17956348 -0.044415228 -0.1130942 -0.11867724 -0.26371163 -0.12609221 0.03225283 -0.5493157
-0.0026821082 -0.21080506 -0.24934839 -0.08234128 -0.13919194 -0.033035506 0.20729211 -0.14631756
-0.086195596 0.11502691 0.04703414 -0.32843405 -0.040368374 -0.05995687 -0.0418794 0.008097018
0.021155618 -0.05228774 0.057349037 0.051516168 -0.07168043 -0.08337235 0.08187928 0.1215046
0.09888983 0.11452557 -0.046215978 -0.20200437 -0.10068835 0.08518005 0.056690402 0.030077612
0.081953645 -0.15680785 0.13301505 -0.06304392 0.116766 -0.12093148 -0.21655321 0.18844526
-0.12165051 -0.12650806 -0.038420357 -0.10248561 0.08324247 0.067399494 -0.08739169 0.15715484
1.4870634 0.062150132 0.052099857 0.0069772922 0.05084093 -0.060258284 -0.17771694 0.124577425
0.04302634 -0.034173854 -0.076244734 -0.03833018 0.17700994 0.057602536 -0.0507404 0.12581365
-0.10678132 0.1926905 0.021819744 -0.08402512 0.029199373 -0.2085146 -0.08671963 0.12571965
-0.043810077 0.43388483 0.059803274 0.0610006 -0.09592796 0.029868303 -0.07724223 0.010804905
-0.10904223 0.019682193 0.1284633 0.12743379 -0.0013309247 -0.08157987 -0.11587472 0.09174204
0.06001141 0.048455924 -0.019803213 0.00847175 -0.10813824 0.081914976 0.08693453 -0.0021614851
-0.117714904 -0.08063017 -0.19588421 0.08034324 -0.09605661 0.009943319 -0.056875333 -0.02796313
-0.04160333 0.037563298 -0.08321921 -0.09333793 -0.021716977 -0.1338183 0.025893202 0.068050325
0.20081174 -0.115599126 0.014546378 0.0062274025 0.13576806 -0.057463825 0.053947717 -0.0094295805
-0.062222764 -0.016367655 0.08262114 -0.040959846 -0.15806709 0.013254909 -0.043462228 -0.010496995
0.04734852 -0.08276293 -0.13321194 -0.0453707 0.019978812 -0.11658163 0.12563594 0.033724822
0.027928833 0.074157886 0.016788583 -0.16023777 0.051176168 -0.008228459 0.0007689298 0.0020251472
0.03779778 -0.1420736 -0.11178688 0.25382906 -0.18505186 0.09480499 -0.035865188 0.14276055
0.24021867 -0.17611776 0.16295199 -0.01940262 -0.34078473 -0.39799026 -0.04283878 -0.093378484
-0.01709419 0.022105962 -0.30604896 -0.07699308 -0.12431977 -0.06689907 -0.09915111 -0.08989464
-0.2656461 0.021786677 -0.06580613 0.030446753 -0.06163445 -0.33934194 -0.075919665 -0.20645125
-0.45826006 -0.05083188 -0.0042587714 -0.019244574 0.008514628 -0.12731396 -0.21251136 -0.13425235
-0.09382107 -0.01621239 -0.032819167 -0.19098873 -0.31566527 -0.00916721 -0.29708636 -0.49736166
0.02073939 -0.2253504 -0.4205975 -0.046343148 0.09124695 -0.04790634 0.14033042 -0.029613808
-0.04970405 -0.2395273 -0.047128357 -0.29183766 -0.16647124 -0.053785343 0.08511231 -0.08742434
00000000: 54d3 4abe e1ee b4bd 8ab5 99be 8469 21be
00000010: 7807 ae3c 0185 0bbd 99e7 35bd 932f 3e3c
00000020: 9ca3 10be e68a d53d 2f40 b8bc f03b 7bbd
00000030: 976d a7be 8c9e 0ebe 950c 10be 5153 873c
00000040: 853a 0cbe 1e02 ea3c 2f83 89be e3e3 f23b
00000050: e01c 11be 944e 8a3d 883b 3abe e6bf 48bd
00000060: cb08 a03d b3e4 08be e3a7 38be e9b0 c0bd
00000070: 286a b7bd 8f82 90be deca a2bd 8cdb 18be
00000080: 0115 9abe 7cb6 26be aa5f c1bd b7ae 213d
00000090: e03b 36be d423 54be 7617 6abe b467 2bbe
000000a0: 7ddf 37be beec 35bd ef9d e7bd 0e0d f3bd
000000b0: 3605 87be 511e 01be 8b1b 043d f49f 0cbf
000000c0: 4fc6 2fbb 48dd 57be 2f55 7fbe 8ca2 a8bd
000000d0: 5588 0ebe 3d50 07bd 6244 543e 45d4 15be
000000e0: 5187 b0bd 3b93 eb3d dfa6 403d 8228 a8be
000000f0: 4f59 25bd 5695 75bd bc89 2bbd 5ba9 043c
00000100: 8c4e ad3c ab2b 56bd d3e6 6a3d 9e02 533d
00000110: 30cd 92bd 1fbf aabd 53b0 a73d 67d7 f83d
00000120: c086 ca3d 628c ea3d f74c 3dbd 3cda 4ebe
00000130: b235 cebd e172 ae3d 3234 683d 5365 f63c
00000140: 50d7 a73d 3d92 20be 1935 083e 2c1d 81bd
00000150: 0323 ef3d ecaa f7bd 20c0 5dbe cbf7 403e
00000160: e723 f9bd 548b 01be aa5e 1dbd fae3 d1bd
00000170: 077b aa3d bf08 8a3d 6afa b2bd 33ed 203e
00000180: 1858 be3f 2391 7e3d a966 553d c5a1 e43b
00000190: 943e 503d 64d1 76bd 6efb 35be 7322 ff3d
000001a0: 633c 303d e2f9 0bbd 3326 9cbd 1b00 1dbd
000001b0: 1842 353e a3f0 6b3d 2ad5 4fbd 4bd5 003e
000001c0: 2ab0 dabd a950 453e 52bf b23c 5d15 acbd
000001d0: 8633 ef3c da84 55be 109a b1bd a7bc 003e
000001e0: 3272 33bd 2726 de3e 47f4 743d c4db 793d
000001f0: e175 c4bd 5fae f43c 2d31 9ebd 0e07 313c
00000200: 8851 dfbd 8d3c a13c e28b 033e 017e 023e
00000210: 6c72 aeba 5913 a7bd ba4f edbd 40e3 bb3d
00000220: 86ce 753d b879 463d 593a a2bc 18cd 0a3c
00000230: 9577 ddbd 0ac3 a73d bb0a b23d b4a7 0dbb
00000240: 8314 f1bd 6e21 a5bd df95 48be ff8a a43d
00000250: 54b9 c4bd 4de9 223c 1cf6 68bd ef12 e5bc
00000260: 4168 2abd f9db 193d d56e aabd f527 bfbd
00000270: cde7 b1bc aa07 09be fb1d d43c f85d 8b3d
00000280: 98a1 4d3e 3cbf ecbd ee53 6e3c 3d0f cc3b
00000290: c806 0b3e 305f 6bbd 48f8 5c3d 877e 1abc
000002a0: 4cdd 7ebd 7615 86bc 4635 a93d 83c5 27bd
000002b0: 57dc 21be 1e2b 593c 7305 32bd 97fb 2bbc
000002c0: 86f0 413d 9c7f a9bd b668 08be a1d6 39bd
000002d0: 9baa a33c 5ac2 eebd b5a6 003e 0a23 0a3d
000002e0: 02cb e43c 17e0 973d 3688 893c 5f15 24be
000002f0: 1a9e 513d a9d0 06bc 0192 493a 55b8 043b
00000300: d8d1 1a3d be7b 11be 85f0 e4bd e2f5 813e
00000310: 3c7e 3dbe 1e29 c23d 60e7 12bd d22f 123e
00000320: e2fb 753e 3758 34be e3dc 263e 3ef2 9ebc
00000330: 567b aebe 61c5 cbbe b777 2fbd 383d bfbd
00000340: 1d09 8cbc 9017 b53c 73b2 9cbe 8cae 9dbd
00000350: 5d9b febd 6102 89bd bd0f cbbd ae1a b8bd
00000360: c402 88be f979 b23c 5dc5 86bd 786b f93c
00000370: 6874 7cbd 3abe adbe c57b 9bbd f567 53be
00000380: 10a1 eabe 1735 50bd 2a8d 8bbb cca6 9dbc
00000390: f080 0b3c 975e 02be 949c 59be 7379 09be
000003a0: 4325 c0bd d9cf 84bc 646d 06bd 8d92 43be
000003b0: e19e a1be 1132 16bc b41b 98be 30a6 febe
000003c0: a7e5 a93c 41c2 66be 8e58 d7be 50d2 3dbd
000003d0: aedf ba3d 7039 44bd c7b2 0f3e a898 f2bc
000003e0: 7996 4bbd a546 75be aa09 41bd bf6b 95be
000003f0: 7077 2abe 054e 5cbd 5d4f ae3d 880b b3bd

lstm.weight_hh_l0 f4 [256, 64]
0.17216095 0.09144613 -0.07246682 -0.1971613 -0.09395262 -0.022194568 -0.061495736 -0.023788549
0.008490138 -0.11588455 0.10182789 -0.10868421 -0.061099302 -0.15779288 -0.050159223 0.09582932
0.018265415 0.07265276 0.07022918 -0.066434786 -0.053776987 0.017629161 -0.08075195 0.11282629
0.20928799 -0.16040798 0.051889554 -0.0470803 0.022508776 -0.08803288 -0.12991856 -0.010186022
-0.46766368 0.12723099 0.18440674 0.09417851 -0.0101353405 0.09584775 0.05829931 -0.0047177067
0.11659423 -0.05139034 -0.06977871 -0.018627321 -0.107705146 -0.0063185897 0.2346501 0.13704035
-0.111745216 -0.10953196 0.06153581 0.0703672 -0.17912166 0.034048844 -0.09684912 0.0024378814
-0.13215621 -0.16054353 0.08343595 -0.05607319 -0.074347116 -0.03491199 -0.092042945 -0.13124478
0.017361995 0.082900696 -0.027632747 -0.08168409 0.03541316 0.029127277 0.11234568 -0.10636434
0.018833816 0.0032187102 0.16215225 -0.11313247 0.043687336 0.046847045 -0.047804255 -0.000897655
-0.06442763 0.16108362 -0.05790227 -0.19511895 -0.0672828 0.0104846675 0.015098222 -0.047608115
0.19244847 -0.039567467 0.032807704 -0.05468227 -0.08437102 -0.028423157 -0.15453757 -0.064389504
-0.13035484 -0.058651995 0.119250365 0.087109216 -0.098920494 0.05403149 0.07214056 0.025789065
0.05379607 0.12384322 -0.05627301 0.15063772 -0.090255745 0.21063471 0.04309281 -0.028422743
-0.054393884 -0.051708493 -0.069933124 0.1294602 -0.13616644 0.042201277 0.031410385 -0.030407377
-0.024615912 -0.1520777 -0.14247465 0.08571377 -0.074182555 0.029068068 -0.12143266 -0.045932457
-0.016927702 -0.14973962 -0.1282204 -0.4067582 0.07103123 0.03786057 0.22672848 0.008040374
-0.14671308 0.13034011 0.052494157 0.071617536 0.06844245 -0.20475976 -0.111582875 -0.1593184
0.09397398 0.21790609 0.1650578 0.106822096 0.18881263 0.05120832 0.030037079 0.04442752
0.12622227 -0.09907415 -0.036337115 -0.011864662 0.09303001 0.35017928 -0.05923754 -0.2341961
-0.6345057 0.2287531 -0.05892209 -0.012332833 -0.1908598 0.22871764 0.050771758 0.19849439
-0.0891421 0.06617757 -0.14236884 -0.029959504 0.18889904 0.018952137 0.09467499 0.24400759
-0.15095612 -0.019712461 0.25911307 0.24680108 0.12939493 0.16223443 -0.15706794 -0.42721558
-0.26508483 -0.25022346 0.18412708 0.1662315 -0.22834142 -0.059518646 -0.029296035 0.08331965
-0.09197423 0.040013503 0.16682641 -0.030332254 0.03527635 0.015699768 0.0672331 -0.13643818
-0.3626155 0.0055924216 -0.095724076 -0.15542726 -0.19560859 -0.02523898 0.12848395 -0.10121216
-0.025010455 -0.032595985 0.07073539 0.0037849413 0.10547089 -0.055550005 -0.1740757 0.1722263
0.027860643 -0.013265864 -0.040015735 -0.06459135 0.07716771 -0.051440172 -0.059368014 0.102870084
0.18790613 -0.012883155 0.02217463 -0.05575244 0.10122358 -0.06820249 0.25280583 -0.117362626
-0.1653491 -0.025611948 0.06442298 0.043187194 -0.2003429 0.03971727 -0.03210239 -0.20307639
-0.011780802 0.0046634767 -0.04742155 -0.0336652 0.15086406 -0.10433888 -0.11650891 0.18665074
0.14886662 -0.09686681 0.076913506 0.017802844 -0.033564 -0.020610582 0.31504825 -0.123330414
00000000: f64a 303e 1c48 bb3d 7c69 94bd a7e4 49be
00000010: 3b6a c0bd 62d1 b5bc f4e2 7bbd 34e0 c2bc
00000020: 381a 0b3c e154 edbd 248b d03d d495 debd
00000030: 4343 7abd 7594 21be c273 4dbd 2a42 c43d
00000040: 5aa1 953c f8ca 943d 51d4 8f3d f60e 88bd
00000050: 4245 5cbd 086b 903c 4761 a5bd 7811 e73d
00000060: 974f 563e fd41 24be 248a 543d 46d7 40bd
00000070: 5364 b83c 954a b4bd 5f09 05be 46e3 26bc
00000080: 9d71 efbe d748 023e 1fd5 3c3e aae0 c03d
00000090: b30e 26bc d34b c43d 42cb 6e3d fe96 9abb
000000a0: f5c8 ee3d ad7e 52bd 24e8 8ebd 5398 98bc
000000b0: 8494 dcbd 2c0c cfbb 1e48 703e 4e54 0c3e
000000c0: adda e4bd 4b52 e0bd f90c 7c3d ae1c 903d
000000d0: ab6b 37be cd76 0b3d d558 c6bd ddc4 1f3b
000000e0: f553 07be 8665 24be 78e0 aa3d 00ad 65bd
000000f0: 4d43 98bd e0ff 0ebd 0381 bcbd 0865 06be
00000100: be3a 8e3c d7c7 a93d 125e e2bc fd49 a7bd
00000110: 640d 113d 549c ee3c 7e15 e63d 8cd5 d9bd
00000120: 6049 9a3c fff0 523b 3d0b 263e ffb1 e7bd
00000130: 7ef1 323d b0e2 3f3d 65ce 43bd 9b50 6bba
00000140: a2f2 83bd 1bf3 243e ee2a 6dbd 43cd 47be
00000150: 91cb 89bd e2c7 2b3c 885e 773c ba00 43bd
00000160: 3611 453e 7f11 22bd 5f61 063d 84fa 5fbd
00000170: b7ca acbd aed7 e8bc 193f 1ebe a5de 83bd
00000180: bd7b 05be 133d 70bd 8939 f43d 5166 b23d
00000190: d496 cabd 2050 5d3d 6ebe 933d 9743 d33c
000001a0: 4559 5c3d 84a1 fd3d 877e 66bd c640 1a3e
000001b0: 01d8 b8bd a0b0 573e 1682 303d d0d6 e8bc
000001c0: 1fcc 5ebd 49cc 53bd 1939 8fbd 3791 043e
000001d0: 376f 0bbe 3fdb 2c3d 2da8 003d e418 f9bc
000001e0: 4fa7 c9bc 42ba 1bbe e0e4 11be b38a af3d
000001f0: 06ed 97bd 2820 ee3c b0b1 f8bd ac23 3cbd
00000200: f7ab 8abc 5855 19be 354c 03be 9c42 d0be
00000210: d278 913d af13 1b3d 832b 683e c6bb 033c
00000220: f43b 16be e177 053e 1d04 573d 37ac 923d
00000230: 8e2b 8c3d 8bac 51be 9085 e4bd 5d24 23be
00000240: 6e75 c03d c622 5f3e e904 293e 8bc5 da3d
00000250: 1958 413e d1bf 513d 5210 f63c a2f9 353d
00000260: 6940 013e 63e7 cabd 3ad6 14bd 0064 42bc
00000270: 8586 be3d b34a b33e 10a3 72bd 1ad1 6fbe
00000280: f76e 22bf 413e 6a3e 4a58 71bd a70f 4abc
00000290: c070 43be f534 6a3e 0cf6 4f3d 1d42 4b3e
000002a0: 2290 b6bd 1b88 873d 23c9 11be a26d f5bc
000002b0: c06e 413e 8341 9b3c f6e4 c13d 20dd 793e
000002c0: 3e94 1abe 077c a1bc 78aa 843e 6cb9 7c3e
000002d0: 1b80 043e c820 263e 6bd6 20be 00bc dabe
000002e0: 33b9 87be 4a1d 80be cf8b 3c3e 9738 2a3e
000002f0: 55d2 69be d3c9 73bd 3dfe efbc 7ea3 aa3d
00000300: fc5c bcbd 33e5 233d 8bd4 2a3e 597b f8bc
00000310: ef7d 103d cd9c 803c 82b1 893d 73b6 0bbe
00000320: bda8 b9be a240 b73b fc0a c4bd 5328 1fbe
00000330: 9e4d 48be fac1 cebc 4c91 033e 5248 cfbd
00000340: bae2 ccbc 5e83 05bd b7dd 903d c70c 783b
00000350: 1f01 d83d 6788 63bd e640 32be 175c 303e
00000360: 013c e43c 1159 59bc 8ae7 23bd 7848 84bd
00000370: 1b0a 9e3d eeb2 52bd e02b 73bd 8dad d23d
00000380: 776a 403e de13 53bc 92a7 b53c ac5c 64bd
00000390: 4f4e cf3d bfad 8bbd c46f 813e d15b f0bd
000003a0: 4651 29be 26d0 d1bc 32f0 833d 0ee5 303d
000003b0: b026 4dbe 93ae 223d cc7d 03bd 42f3 4fbe
000003c0: 4404 41bc 14d0 983b 193d 42bd 85e4 09bd
000003d0: 1c7c 1a3e 9faf d5bd 399c eebd 5f21 3f3e
000003e0: 7e70 183e 1b62 c6bd d484 9d3d 45d7 913c
000003f0: 687a 09bd 86d7 a8bc 014e a13e a894 fcbd

lstm.bias_ih_l0 f4 [256]
-0.19867344 -0.23360226 0.09720692 0.014621284 -0.23341978 -0.043330763 -0.039031144 0.029698035
0.07624671 -0.0883318 -0.10269475 -0.07710425 -0.014810716 -0.0010758796 -0.0165376 0.033820357
0.010320673 -0.10732082 0.027776448 -0.11984686 0.036998954 -0.06549123 -0.047124114 -0.061281323
-0.1272006 -0.033530176 -0.099395104 -0.070987456 -0.1329554 -0.014515421 0.0011377479 0.01510126
0.09491315 -0.057641987 -0.2938138 -0.012327949 -0.048117477 -0.16713992 -0.047080383 -0.081033826
-0.16884212 -0.20371184 -0.07943707 -0.088171355 0.054753814 -0.0866625 -0.07078209 0.022186695
0.19606836 -0.00307276 0.054620925 0.049717847 0.0059246146 -0.0696096 -0.040516775 -0.049268913
-0.13863613 -0.0033530686 0.08497212 -0.051214006 0.05856532 -0.12236723 -0.030268447 -0.08350133
-0.08598485 -0.038242426 0.010853821 -0.10022263 -0.122601315 -0.04412461 0.004063196 -0.0008917514
-0.12876977 -0.027857613 -0.18359625 -0.1532166 -0.07021734 -0.05103052 -0.181955 -0.06251347
0.042611703 -0.121852756 -0.13672335 -0.033653602 -0.08515334 -0.06598196 -0.14902124 0.028625222
-0.06196825 -0.13175918 -0.059793025 -0.110736996 -0.20774779 -0.047094893 -0.08078919 0.016675727
0.1537823 0.0505801 -0.13374044 0.067537725 -0.11136766 0.010057555 -0.24213341 -0.23700543
-0.03080728 -0.09854782 -0.05432823 -0.077831425 0.0002308295 -0.050184846 -0.011861632 -0.12118965
-0.054766398 -0.14249514 0.060021978 -0.13876456 -0.14866011 -0.15298416 -0.07875417 -0.21491472
-0.21780539 -0.16657895 -0.26486397 0.03347505 -0.3431473 0.17790227 0.101179406 -0.14651726
0.027714422 0.022746142 0.10817924 -0.015694544 0.0154566625 0.17068514 0.13763267 -0.1288062
0.057389062 0.066973515 -0.070010826 0.0022935986 -0.062966 -0.119163066 0.18056296 -0.028540622
-0.13135521 -0.109318696 -0.046358746 0.12264555 0.025070492 0.11402866 0.026964357 -0.044200182
-0.022902925 -0.0012052556 -0.09577835 -0.058953486 0.084007196 -0.053155296 0.009129713 0.1838421
0.14375958 -0.011129548 -0.06579564 -0.09226435 0.094450355 -0.017511757 0.08087897 0.06096472
-0.08630463 0.15913853 0.12159844 -0.12683944 -0.15594071 -0.14583367 0.060028914 0.059246387
-0.20137374 0.0017614576 0.065979 -0.035049997 0.026343055 -0.16337779 0.02967418 -0.048727114
0.044823185 -0.064425506 0.14162171 -0.10348951 -0.09793039 -0.109017015 0.013094489 0.047027364
0.024845637 -0.081178576 -0.025323935 -0.0039948844 -0.3235765 -0.09735525 0.074822955 -0.09684002
0.06268169 0.029320898 -0.09451594 0.029550549 -0.0713581 -0.05446578 -0.1407901 -0.061963286
0.03796681 -0.024998251 0.09250138 -0.10367658 -0.109297596 -0.2987326 -0.14031793 0.02361936
-0.08275856 -0.10965721 -0.089950785 0.003127487 -0.09106489 -0.08506771 -0.20240594 0.022912672
0.101505466 -0.066875994 -0.2781737 -0.0069333245 -0.16105968 -0.06748157 -0.0529556 -0.23056562
-0.16920127 -0.2113887 -0.13947514 -0.0123212915 0.10379171 -0.10230304 -0.17749833 -0.051103972
0.15460216 -0.09372912 0.09180283 0.002084742 -0.062484484 -0.07785606 0.026329141 -0.09023976
-0.045076214 0.028686512 0.022598226 -0.08545996 -0.13496315 0.119090326 0.032692965 -0.18227492
00000000: 0d71 4bbe 6e35 6fbe 6c14 c73d 1c8e 6f3c
00000010: 9805 6fbe 997b 31bd 1fdf 1fbd 4b49 f33c
00000020: 3c27 9c3d 4ee7 b4bd a051 d2bd d5e8 9dbd
00000030: a5a8 72bc 8704 8dba dc79 87bc 3787 0a3d
00000040: 0a18 293c 05cb dbbd 6f8b e33c 4572 f5bd
00000050: 378c 173d 4420 86bd 3705 41bd 2002 7bbd
00000060: e040 02be f056 09bd a98f cbbd df61 91bd
00000070: 7625 08be 17d2 6dbc 7c20 953a 466b 773c
00000080: d361 c23d 011a 6cbd c36e 96be 2afb 49bc
00000090: d516 45bd ba26 2bbe 5cd7 40bd 10f5 a5bd
000000a0: f3e4 2cbe d699 50be e7af a2bd 2f93 b4bd
000000b0: 8945 603d 1c7c b1bd 33f6 90bd dfc0 b53c
000000c0: 25c6 483e 5c60 49bb 31ba 5f3d f1a4 4b3d
000000d0: 4523 c23b 7a8f 8ebd ebf4 25bd 33ce 49bd
000000e0: a1f6 0dbe 28bf 5bbb dd05 ae3d c7c5 51bd
000000f0: 30e2 6f3d ac9b fabd 89f5 f7bc bf02 abbd
00000100: d318 b0bd 17a4 1cbd 3ad4 313c 8641 cdbd
00000110: 6616 fbbd 02bc 34bd 8f24 853b 6cc4 69ba
00000120: 39dc 03be a635 e4bc a800 3cbe d0e4 1cbe
00000130: 1cce 8fbd 6105 51bd 6952 3abe 1007 80bd
00000140: 9c89 2e3d f08d f9bd 3501 0cbe 5cd8 09bd
00000150: e064 aebd 8d21 87bd 0699 18be 717f ea3c
00000160: 6bd2 7dbd e1eb 06be 88e9 74bd 14ca e2bd
00000170: d6bb 54be 93e6 40bd ce74 a5bd 899b 883c
00000180: 1b79 1d3e 142d 4f3d 41f3 08be 3851 8a3d
00000190: ba14 e4bd 71c8 243c d2f1 77be 8db1 72be
000001a0: 8d5f fcbc 70d3 c9bd 4787 5ebd 1566 9fbd
000001b0: d20a 7239 a08e 4dbd 4a57 42bc 4732 f8bd
000001c0: bb52 60bd 3fea 11be 9bd9 753d 4c18 0ebe
000001d0: 5b3a 18be e1a7 1cbe de49 a1bd 9b12 5cbe
000001e0: 6008 5fbe ac93 2abe 409c 87be 221d 093d
000001f0: 01b1 afbe 032c 363e 2637 cf3d 9f08 16be
00000200: 5b09 e33c 1e56 ba3c 148d dd3d d891 80bc
00000210: f13d 7d3c 16c8 2e3e 94ef 0c3e c6e5 03be
00000220: cb10 6b3d 6929 893d d661 8fbd 3350 163b
00000230: 51f4 80bd c40b f4bd 7fe5 383e 06ce e9bc
00000240: fb81 06be 7be2 dfbd abe2 3dbd 972d fb3d
00000250: a260 cd3c dc87 e93d 5be4 dc3c 400b 35bd
00000260: ea9e bbbc abf9 9dba 7127 c4bd 3679 71bd
00000270: f70b ac3d 5eb9 59bd cb94 153c 1a41 3c3e
00000280: b635 133e b558 36bc ddbf 86bd 17f5 bcbd
00000290: 306f c13d d174 8fbc e0a3 a53d 24b6 793d
000002a0: 7bc0 b0bd 36f5 223e 9a08 f93d 33e2 01be
000002b0: ecae 1fbe 6c55 15be e1e0 753d 57ac 723d
000002c0: eb34 4ebe b6e0 e63a ff1f 873d 9690 0fbd
000002d0: 64cd d73c 824c 27be 4417 f33c 1596 47bd
000002e0: 8498 373d 85f1 83bd 4805 113e 4ff2 d3bd
000002f0: ba8f c8bd 5044 dfbd 458a 563c c49f 403d
00000300: 1489 cb3c f440 a6bd 2474 cfbc 85e7 82bb
00000310: d2ab a5be 3062 c7bd c73c 993d 0f54 c6bd
00000320: 425f 803d 6132 f03c 9391 c1bd fe13 f23c
00000330: 3224 92bd 8217 5fbd 482b 10be 37cd 7dbd
00000340: 1683 1b3d 22c9 ccbc 5d71 bd3d 6354 d4bd
00000350: 6bd7 dfbd 7bf3 98be 81af 0fbe 637d c13c
00000360: 527d a9bd f693 e0bd 1e38 b8bd 86f6 4c3b
00000370: 3b80 babd fb37 aebd 8143 4fbe 5bb3 bb3c
00000380: 19e2 cf3d 48f6 88bd c96c 8ebe f130 e3bb
00000390: d4ec 24be c733 8abd f9e7 58bd 6519 6cbe
000003a0: 1943 2dbe 4876 58be 92d2 0ebe 3edf 49bc
000003b0: c090 d43d 4284 d1bd 1fc2 35be 6652 51bd
000003c0: 0750 1e3e 0ef5 bfbd 1f03 bc3d 2ba0 083b
000003d0: bbef 7fbd ff72 9fbd 36b0 d73c a0cf b8bd
000003e0: d6a1 38bd faff ea3c ea1f b93c a205 afbd
000003f0: c833 0abe a1e5 f33d 0fe9 053d 47a6 3abe

lstm.bias_hh_l0 f4 [256]
-0.17302208 -0.16977265 0.030454017 0.041713838 -0.15762652 0.019568764 -0.046191595 0.10957986
-0.10627209 0.052894577 -0.09405723 -0.16283488 0.0014875259 -0.056999348 -0.012027962 -0.04327767
-0.13703041 0.07538771 -0.10917587 -0.036654957 0.007901487 -0.04713136 -0.13573089 -0.15288505
0.027366452 -0.080554366 -0.18686914 -0.17031388 -0.19174778 -0.10419159 -0.05683084 0.010095034
0.12560035 -0.05657907 -0.25917307 -0.026553813 0.08667131 -0.04438687 0.03292147 -0.13646533
0.003952903 -0.053124942 -0.04726881 -0.09841304 -0.0037477715 -0.1463626 0.008767757 0.030831056
0.09017765 0.0802062 0.034689553 -0.037566714 -0.00864187 -0.026655879 0.11276968 -0.14409122
-0.064910784 -0.042074658 -0.109745175 -0.014811183 -0.05339267 -0.07829135 0.066177785 -0.11077599
0.027163822 -0.19560435 -0.02876726 -0.13555446 -0.058112152 -0.09241122 -0.008039199 0.0014041323
-0.018979026 -0.0776058 -0.14332004 -0.24761024 -0.1291673 -0.08658173 -0.06154465 -0.07227438
-0.09544926 -0.0019760504 -0.14614211 -0.016855162 -0.15340647 -0.05788693 -0.24232315 -0.06281676
-0.12821344 -0.27834734 -0.006914854 0.04010793 -0.12752685 0.023665518 -0.18940908 -0.14987074
0.0051592304 -0.0669513 0.0001486843 -0.124750495 0.10165323 0.039655134 -0.10782497 -0.065329045
-0.098817155 -0.091586664 -0.053641032 -0.15264256 -0.12444555 -0.19678399 0.01944307 -0.20535773
-0.05568744 -0.06956196 0.022194453 -0.045854267 -0.27597016 -0.10047502 0.024742719 -0.06268661
-0.23563422 -0.050061375 -0.23338965 -0.03550399 -0.14407346 0.062432963 0.074285954 -0.07966649
-0.1772412 -0.033119258 0.03822067 0.11100415 -0.050513163 0.08785901 0.16887155 -0.09560978
-0.06431175 0.11131958 -0.16063574 0.15649104 -0.01602659 -0.06588954 0.10361025 -0.03186735
-0.16529876 0.012005258 -0.19293974 0.119336836 0.073393054 0.12711477 -0.024198957 0.1096946
-0.031779606 -0.10760452 -0.097370215 -0.08241916 0.088518865 0.010878976 0.04017037 -0.007729709
-0.00745371 -0.057002038 0.036416624 -0.15243578 0.14714365 -0.015223877 0.06280048 0.10395136
-0.11355103 -0.064488135 0.0016710943 -0.06106143 -0.073857 -0.065591395 -0.043613527 0.025958346
-0.17797643 -0.17291659 0.010790229 0.08077776 0.14942688 -0.032914292 -0.14933127 -0.038854197
-0.070751876 0.06264133 0.14212444 0.026335664 4.0495368e-05 -0.054502267 0.20793241 0.09409768
-0.13784645 -0.18718082 -0.07214487 0.09520816 -0.15779153 0.09277402 0.07976131 0.13020419
0.012968131 0.039868012 -0.3114771 -0.04100378 -0.016980153 -0.07344727 -0.06790579 -0.17290862
0.0101379985 -0.089707956 -0.13067037 -0.20733917 -0.09194153 -0.2809458 0.033941016 -0.075922586
0.035647187 0.04778138 -0.07784474 -0.12159717 -0.15003757 0.057043158 0.0004043455 -0.111979984
0.109900266 -0.061888903 -0.1733336 0.1331599 -0.15570652 -0.10977143 0.02798927 -0.103678115
-0.21036412 -0.19228649 0.06384599 -0.0385702 -0.043482255 0.031614695 -0.1724264 -0.11826786
0.01523143 -0.0590456 -0.07127779 -0.099292256 0.020207828 0.011298611 0.018680548 -0.22231603
0.0142869605 -0.15125865 -0.15622915 0.038940635 0.088261664 0.07791373 0.044984736 -0.10361349
00000000: b32c 31be e2d8 2dbe b47a f93c 21dc 2a3d
00000010: d968 21be ac4e a03c 6633 3dbd 686b e03d
00000020: 2ea5 d9bd fca7 583d 14a1 c0bd 30be 26be
00000030: 16f9 c23a 2678 69bd ee10 45bc ed43 31bd
00000040: b351 0cbe df64 9a3d 9997 dfbd 8223 16bd
00000050: 3d75 013c d00c 41bd 0afd 0abe e68d 1cbe
00000060: 9c2f e03c b0f9 a4bd a05a 3fbe c366 2ebe
00000070: 8859 44be 6662 d5bd 74c7 68bd a465 253c
00000080: 619d 003e 74bf 67bd 55b2 84be 6287 d9bc
00000090: ba80 b13d 02cf 35bd aad8 063d 91bd 0bbe
000000a0: 5b87 813b 8a99 59bd f19c 41bd c78c c9bd
000000b0: 2c9d 75bb 14e0 15be a3a6 0f3c 6991 fc3c
000000c0: 0faf b83d 2643 a43d a216 0e3d 8edf 19bd
000000d0: a196 0dbc 6e5d dabc caf3 e63d a68c 13be
000000e0: f2ef 84bd 7a56 2cbd 14c2 e0bd 9baa 72bc
000000f0: 46b2 5abd 3757 a0bd 3888 873d 86de e2bd
00000100: aa86 de3c 824c 48be 51a9 ebbc cace 0abe
00000110: 0207 6ebd 1842 bdbd d8b6 03bc dd0a b83a
00000120: e779 9bbc caef 9ebd 7dc2 12be 8a8d 7dbe
00000130: 6f44 04be c351 b1bd 3e16 7cbd 9704 94bd
00000140: e77a c3bd a080 01bb 47a6 15be d613 8abc
00000150: 9616 1dbe d81a 6dbd 8f23 78be 13a6 80bd
00000160: 624a 03be 8b83 8ebe 0096 e2bb 3648 243d
00000170: 6696 02be 30de c13c 74f4 41be b777 19be
00000180: c30e a93b c31d 89bd 23e8 1b39 307d ffbd
00000190: 922f d03d 6c6d 223d 56d3 dcbd 3ccb 85bd
000001a0: a660 cabd ca91 bbbd b3b6 5bbd 554e 1cbe
000001b0: 4fdd febd be81 49be 1347 9f3c 4c49 52be
000001c0: 8318 64bd 8076 8ebd 24d1 b53c afd1 3bbd
000001d0: f64b 8dbe d9c5 cdbd 3eb1 ca3c d661 80bd
000001e0: 194a 71be 280d 4dbd b2fd 6ebe a26c 11bd
000001f0: fe87 13be b5b9 7f3d 3c23 983d 2f28 a3bd
00000200: b87e 35be 0fa8 07bd 478d 1c3d 2556 e33d
00000210: e4e6 4ebd 6def b33d aaec 2c3e 0fcf c3bd
00000220: e1b5 83bd 85fb e33d b27d 24be 303f 203e
00000230: 324a 83bc 18f1 86bd 9c31 d43d 5787 02bd
00000240: 1444 29be b4b1 443c ff91 45be df66 f43d
00000250: 194f 963d 602a 023e e43c c6bc 90a7 e03d
00000260: 552b 02bd c25f dcbd 096a c7bd 60cb a8bd
00000270: 6149 b53d bc3d 323c b089 243d 8049 fdbb
00000280: 403e f4bb f87a 69bd 9929 153d 2018 1cbe
00000290: d3ac 163e 916d 79bc 8a9d 803d 73e4 d43d
000002a0: 718d e8bd 5b12 84bd 9f08 db3a 8d1b 7abd
000002b0: 5742 97bd c854 86bd 19a4 32bd 99a6 d43c
000002c0: 743f 36be 0c11 31be 80c9 303c cf6e a53d
000002d0: 5c03 193e 23d1 06bd 4cea 18be 9425 1fbd
000002e0: 5ce6 90bd 194a 803d 1289 113e e4bd d73c
000002f0: 92d9 2938 c53d 5fbd 3cec 543e 49b6 c03d
00000300: 9f27 0dbe 54ac 3fbe b1c0 93bd 7ffc c23d
00000310: 1a94 21be 4e00 be3d e659 a33d 3f54 053e
00000320: 4978 543c a44c 233d ed79 9fbe 94f3 27bd
00000330: f619 8bbc 866b 96bd 3112 8bbd f50e 31be
00000340: d919 263c ceb8 b7bd 74ce 05be b850 54be
00000350: d74b bcbd 21d8 8fbe bc05 0b3d 4d7d 9bbd
00000360: c902 123d 69b6 433d 106d 9fbd f007 f9bd
00000370: 73a3 19be 16a6 693d 56fe d339 c355 e5bd
00000380: 6413 e13d 387f 7dbd 5d7e 31be 125b 083e
00000390: 8871 1fbe d8cf e0bd c149 e53c 3155 d4bd
000003a0: b169 57be c0e6 44be b0c1 823d c9fb 1dbd
000003b0: 731a 32bd 697e 013d 8c90 30be 6b36 f2bd
000003c0: 3f8d 793c cdd9 71bd 17fa 91bd bd59 cbbd
000003d0: e38a a53c cf1d 393c f307 993c d0a6 63be
000003e0: db13 6a3c 8ce3 1abe 89fa 1fbe 3780 1f3d
000003f0: 88c2 b43d 3c91 9f3d ea41 383d 4f33 d4bd

bn.weight f4 [64]
0.8903733 0.87118334 0.83581764 0.8656546 0.80252224 0.88979316 0.87599856 0.87984836
0.8863331 0.842008 0.9233348 0.7974 0.9082079 0.9314017 0.79347694 0.8607616
0.8488916 0.9146352 0.87516254 0.84855187 0.8470728 0.83766294 0.93728894 0.80602443
0.8596701 0.90261054 0.8799319 0.8775901 0.8630241 0.8554572 0.7545446 0.82333535
0.8743855 0.85012 0.910152 0.89769846 0.8669589 0.8586665 0.84800726 0.88344955
0.81515235 0.9011409 0.88602227 0.8638027 0.8467567 0.8750547 0.7856979 0.8856633
0.8537072 0.78594935 0.85384935 0.8904461 0.88538927 0.866722 0.84570974 0.86641407
0.92275923 0.84448785 0.82079405 0.86392283 0.9198802 0.7753464 0.7835895 0.87069374
00000000: 81ef 633f df05 5f3f 25f8 553f 8a9b 5d3f
00000010: 1972 4d3f 7cc9 633f 7141 603f be3d 613f
00000020: bae6 623f d68d 573f ab5f 6c3f 6822 4c3f
00000030: 5080 683f 5870 6e3f 4e21 4b3f df5a 5c3f
00000040: f650 593f 8825 6a3f a70a 603f b23a 593f
00000050: c3d9 583f 1471 563f 2bf2 6f3f 9e57 4e3f
00000060: 5713 5c3f 7c11 673f 3843 613f bfa9 603f
00000070: 26ef 5c3f 3eff 5a3f d629 413f 1bc6 523f
00000080: bad7 5f3f 77a1 593f b9ff 683f 91cf 653f
00000090: 05f1 5d3f 91d1 5b3f 0117 593f c029 623f
000000a0: d3ad 503f 2cb1 663f 5bd2 623f 2c22 5d3f
000000b0: 0cc5 583f 9603 603f 7f23 493f d4ba 623f
000000c0: 8e8c 5a3f fa33 493f df95 5a3f 47f4 633f
000000d0: dfa8 623f 7ee1 5d3f 6f80 583f 50cd 5d3f
000000e0: f339 6c3f 5b30 583f 8f1f 523f 0c2a 5d3f
000000f0: 457d 6b3f 1a7d 463f 5299 483f c9e5 5e3f

bn.bias f4 [64]
-0.35468024 -0.37450796 -0.3683918 0.44031054 0.38309586 0.111926384 0.17753339 -0.29036963
-0.38006288 -0.48893386 -0.43987483 -0.34366766 -0.39334908 0.49718896 -0.3200461 -0.4629094
-0.37335697 -0.28372014 -0.43273702 0.4230412 0.34073704 -0.42444158 -0.35558373 0.55641174
0.42290744 0.41640288 -0.4662264 -0.37461358 -0.32237974 -0.42572603 -0.41028434 -0.49623087
-0.3704387 -0.29010195 -0.33446854 -0.17990114 0.48706606 -0.45047873 0.31674793 -0.35988382
-0.38561392 0.3862097 0.37851602 0.41719562 0.28424108 0.3695909 0.40916196 -0.52879274
0.2813266 0.4460512 0.40865922 -0.299251 0.41726798 -0.3910243 -0.25455388 0.40032098
0.51555157 -0.2834637 -0.42062908 -0.4135396 0.42081955 -0.44890764 0.44779426 -0.43782473
00000000: a698 b5be 82bf bfbe da9d bcbe 6270 e13e
00000010: 2425 c43e a939 e53d 50cb 353e 54ab 94be
00000020: 9a97 c2be 8a55 fabe 4637 e1be 35f5 afbe
00000030: 0d65 c9be 8d8f fe3e 15dd a3be 7602 edbe
00000040: a528 bfbe c443 91be b58f ddbe db98 d83e
00000050: 1675 ae3e 6850 d9be 120f b6be 0071 0e3f
00000060: 5387 d83e c232 d53e 3ab5 eebe 5acd bfbe
00000070: f50e a5be c3f8 d9be ca10 d2be f911 febe
00000080: 24aa bdbe 3e88 94be 763f abbe 0138 38be
00000090: b960 f93e 26a5 e6be c92c a23e b142 b8be
000000a0: 306f c5be 47bd c53e dacc c13e aa9a d53e
000000b0: 0c88 913e 053b bd3e ad7d d13e f65e 07bf
000000c0: 0a0a 903e d360 e43e c83b d13e 6d37 99be
000000d0: 26a4 d53e 5634 c8be e354 82be dff6 cc3e
000000e0: 30fb 033f 2722 91be b25c d7be 76bb d3be
000000f0: a975 d73e 39d7 e5be 4a45 e53e 902a e0be

bn.running_mean f4 [64]
-0.046626724 0.003914115 0.032074537 0.22582814 -0.009755153 0.09260013 0.1178916 -0.06390524
-0.03477246 0.091572076 -0.060610715 0.05059183 -0.023111988 -0.03336764 0.073384166 0.004471485
-0.10854153 -0.061530467 -0.067585625 0.123739325 0.056449957 0.048588898 -0.007343819 0.047746353
-0.039140828 0.0023688956 -0.05539642 -0.059851103 0.032034416 -0.014188721 0.004613864 0.04686015
0.15091108 -0.052752372 -0.0014051283 -0.10893933 0.09477286 -0.017549358 0.123906076 0.0045856
-0.054293893 0.04498531 0.06280873 -0.052069306 -0.1129361 -0.058987033 -0.024864882 -0.010145634
-0.17706357 0.009395042 0.07659322 -0.010568016 0.08639519 -0.099202275 -0.09452431 0.0141685745
0.033856317 -0.01408358 0.039987996 -0.036341555 -0.0094989985 -0.09199326 0.16847678 0.028915621
00000000: aafb 3ebd fa41 803b 9760 033d 7e3f 673e
00000010: 14d4 1fbc 23a5 bd3d 2771 f13d c0e0 82bd
00000020: 916d 0ebd 248a bb3d f142 78bd 6139 4f3d
00000030: 5a55 bdbc 82ac 08bd 704a 963d 8985 923b
00000040: 064b debd 5f07 7cbd 556a 8abd 0b6b fd3d
00000050: 1238 673d 2705 473d 6ba4 f0bb ae91 433d
00000060: 2252 20bd 793f 1b3b 5be7 62bd 6e26 75bd
00000070: 8536 033d cf77 68bc e52f 973b 6ef0 3f3d
00000080: 6f88 1a3e df12 58bd 482c b8ba 951b dfbd
00000090: 4618 c23d acc3 8fbc 78c2 fd3d cd42 963b
000000a0: 4663 5ebd 8442 383d dda1 803d a046 55bd
000000b0: 0b4b e7bd 639c 71bd 70b1 cbbc e039 26bc
000000c0: 2750 35be aaed 193c e8dc 9c3d 7925 2dbc
000000d0: f6ef b03d 902a cbbd f695 c1bd 4f23 683c
000000e0: ecac 0a3d d1be 66bc 74ca 233d e2da 14bd
000000f0: b0a1 1bbc f666 bcbd 2d85 2c3e 74e0 ec3c

bn.running_var f4 [64]
6.927492e-07 6.4329384e-07 1.5842877e-05 2.931317e-05 7.1731296e-07 3.2485623e-05 3.0272175e-05 8.037925e-05
1.515239e-05 5.2776622e-06 3.2089158e-06 1.7195541e-06 7.517445e-07 2.5227462e-06 2.149369e-06 1.0331905e-06
1.9334243e-06 1.10747005e-05 2.7472695e-06 3.099858e-06 4.9087907e-06 9.1159694e-07 6.446039e-07 5.8169426e-06
2.0721204e-06 1.8979486e-06 1.632335e-06 1.5510366e-06 1.104546e-06 1.2212696e-06 9.0987703e-07 2.8160935e-06
0.0003415587 1.1040772e-05 4.4716674e-07 2.0884107e-05 1.5645062e-06 9.2429764e-07 1.8601633e-05 5.798321e-07
1.1292314e-06 1.5354224e-06 1.2826781e-06 2.024313e-06 0.00014191675 1.507171e-06 1.0671083e-06 1.1596626e-06
5.9037262e-05 3.4136203e-05 0.000119098695 2.703917e-06 1.8505136e-06 4.4192143e-06 0.00010886688 6.37282e-07
1.5542242e-06 3.4421143e-06 3.1113605e-06 3.343974e-06 1.27041e-06 1.6881651e-05 6.315405e-06 9.2614135e-07
00000000: 5df5 3935 d1ae 2c35 52e6 8437 8ee5 f537
00000010: 5f8d 4035 2c41 0838 00f1 fd37 4891 a838
00000020: 0537 7e37 c616 b136 c158 5736 6ecb e635
00000030: 7dcb 4935 734c 2936 e13d 1036 28ac 8a35
00000040: fabf 0136 7acd 3937 bb5d 3836 2807 5036
00000050: 31b6 a436 77b4 7435 d808 2d35 282f c336
00000060: c20e 0b36 04bd fe35 9b16 db35 362d d035
00000070: e93f 9435 81ea a335 463e 7435 1efc 3c36
00000080: 3c13 b339 c13b 3937 2112 f034 4730 af37
00000090: 06fc d135 401d 7835 b40a 9c37 c2a5 1b35
000000a0: 1890 9735 b614 ce35 7c28 ac35 6fd9 0736
000000b0: 7dcf 1439 004a ca35 9039 8f35 b4a5 9b35
000000c0: c79e 7738 782d 0f38 a0c4 f938 f174 3536
000000d0: 2a5f f835 c348 9436 764f e438 b011 2b35
000000e0: bd9a d035 13ff 6636 c4cc 5036 0969 6036
000000f0: f582 aa35 129d 8d37 eae8 d336 f39b 7835

fc.weight f4 [2, 64]
-0.19473311 -0.11032797 -0.0048789475 0.1373323 0.23127191 -0.06704422 0.056734357 0.06007393
-0.032503206 -0.09755038 -0.20507811 -0.19730374 -0.23945569 0.15457702 -0.08349465 -0.10618738
-0.11660716 -0.11391645 -0.120840825 0.20389615 -0.010074783 -0.26537633 -0.24909498 0.07068604
0.056464154 0.11929288 -0.051732972 -0.1095333 -0.0775927 -0.15149996 -0.17383246 -0.0629326
-0.028466618 -0.056964137 -0.096059866 -0.034468148 0.072710626 -0.13839519 0.094983034 -0.18038623
-0.14817485 0.03749397 0.2052956 0.14179738 -0.031231083 0.1418547 0.1804257 -0.26399404
0.037787903 0.018044712 -0.010534723 -0.08406968 0.16768992 -0.12808403 0.09456675 0.17348556
0.30304185 -0.09221127 -0.15513317 -0.16559786 0.21350226 0.03551258 0.14379467 -0.11264083
0.15631923 0.18248981 0.021541364 0.063378565 -0.2694668 -0.028617693 0.009710525 0.047775056
0.028426 0.07949034 0.10700853 0.15969865 0.11860989 -0.06013688 0.044013537 0.20185013
0.09777489 0.12888506 0.057685856 -0.08681135 -0.079462245 0.12162364 0.25622666 -0.10929478
-0.2200123 -0.102985784 0.23561776 0.18143958 0.12362425 0.08434864 0.12337256 0.10875329
-0.09647175 -0.020081338 0.14480084 -0.06971472 -0.17745015 0.26171544 0.10589681 0.26657146
0.1287151 -0.18920164 -0.110277995 -0.14093132 -0.009904225 -0.040473025 -0.07299087 0.11661987
0.00017057068 0.0053141406 0.007159335 0.012925951 -0.27795658 0.043566547 0.055309605 -0.26020515
-0.09525893 0.0063458816 0.041367885 -0.040657684 -0.31622657 0.084663786 0.023011744 0.11415777
00000000: 1e68 47be a1f3 e1bd 94df 9fbb d7a0 0c3e
00000010: 8bd2 6c3e 7b4e 89bd 4962 683d 1510 763d
00000020: 1522 05bd 7ec8 c7bd ffff 51be fe09 4abe
00000030: df33 75be 7049 1e3e 3eff aabd c578 d9bd
00000040: bccf eebd 074d e9bd 657b f7bd 27ca 503e
00000050: b410 25bc 68df 87be c112 7fbe d8c3 903d
00000060: f546 673d d34f f43d f4e5 53bd ff52 e0bd
00000070: ece8 9ebd ce22 1bbe 2301 32be cfe2 80bd
00000080: d332 e9bc 3a53 69bd 09bb c4bd 792e 0dbd
00000090: 4fe9 943d 78b7 0dbe 7786 c23d 2bb7 38be
000000a0: 26bb 17be 4793 193d 0339 523e 5533 113e
000000b0: 54d8 ffbc 5c42 113e 84c1 383e 3a2a 87be
000000c0: 7dc7 1a3d 81d2 933c d599 2cbc b92c acbd
000000d0: e8b6 2b3e 7628 03be 36ac c13d 33a6 313e
000000e0: 4d28 9b3e 43d9 bcbd 3bdb 1ebe 7c92 29be
000000f0: 56a0 5a3e a475 113d e93e 133e 3cb0 e6bd
00000100: 2612 203e 9cde 3a3e 8477 b03c 9fcc 813d
00000110: 8df7 89be a76f eabc e518 1f3c c7af 433d
00000120: a5dd e83c d5cb a23d 4a27 db3d 0b88 233e
00000130: bee9 f23d 1752 76bd 8a47 343d cdb1 4e3e
00000140: 343e c83d 72fa 033e 0148 6c3d 26ca b1bd
00000150: 1abd a2bd d115 f93d 2430 833e f1d5 dfbd
00000160: e84a 61be 36ea d2bd c845 713e 4ccb 393e
00000170: b62e fd3d fbbe ac3d c1aa fc3d 0bba de3d
00000180: fb92 c5bd 9e81 a4bc ac46 143e 97c6 8ebd
00000190: 7eb5 35be 91ff 853e 6de0 d83d 0e7c 883e
000001a0: e4cd 033e 13be 41be 6ed9 e1bd 4d50 10be
000001b0: 5545 22bc 0bc7 25bd 3d7c 95bd 66d6 ee3d
000001c0: 38db 3239 3e22 ae3b db98 ea3b 5ec7 533c
000001d0: 5350 8ebe d672 323d 538c 623d 9c39 85be
000001e0: 1d17 c3bd 1df1 cf3b 5f71 293d ac88 26bd
000001f0: 73e8 a1be 3564 ad3d 2083 bc3c 8dcb e93d

fc.bias f4 [2]
0.0571192 -0.13635144
00000000: d2f5 693d b69f 0bbe
