model/best_cnn_model1.pth (torch, 72714 bytes, 10 tensors)

conv1.weight f4 [32, 1, 3]
00000000: a569 a43d 4b08 b4bd 5529 ba3e 3c5e 32bf
00000010: 65eb 88be f7f9 b6be 2029 ed3d d35e bfbe
00000020: 942e d13d 3c78 debd 6022 d3be f014 4abe
00000030: f26d e1be c289 b03d fd1f 0a3f 8b6e 36be
00000040: 792f dabe 5de2 cb3e f91f c23e 15fb 0c3f
00000050: 0cce c73d 3858 013f 2f97 673e bdda 38be
00000060: 7221 683e e473 7c3d 7c3d e03c 9faf 0f3f
00000070: 2bc5 ca3e 09ce a73e 2f35 883e 693c d0be
00000080: b6bd 5ebd 75e3 18bf 0540 76be 3b46 22bb
00000090: 3d3e 3abd 3328 d8bd 9d12 aebe d2d8 4cbe
000000a0: 6ad1 ad3e 1f0f 083e 098d ecbe 199e dcbe
000000b0: 44e7 b63e 5e05 263f af49 59be 2ca4 e93d
000000c0: 9764 403e ddfa 3cbc a30a 0fbf 5b59 143e
000000d0: 13e3 f1be 8864 093f b1fe ecbe a6f9 083f
000000e0: e1a4 bebb 5b0b f23e c468 b13e 64b2 dc3c
000000f0: 817b 333f 3e69 303d 7b37 94be 3dc9 b2bd
00000100: 2257 24bf dae9 6bbe 53fb f53e 3e2d 903d
00000110: 06c6 08bf 264c 4a3e 5a14 94be b06b 23bf
00000120: a452 0fbf 45fb 62be 8e51 aa3b 805f 99be
00000130: e414 d33e b702 b0be 9e6e 77bd 3ea5 8bbe
00000140: 948c 6b3e 65af bd3e c175 dbbe 734e ba3e
00000150: 5eb4 153f b389 a7be 8d6c 89be 59ff d43d
00000160: 60c1 a5be 42a4 a9bd 8404 803e 2f55 213f
00000170: 0ce4 0f3e c555 083f be69 e9be b88e 9dbe
0.080279626 -0.08790644 0.3635966 -0.6967504 -0.26742092 -0.35737583 0.115801096 -0.37377033
0.10213962 -0.10862777 -0.41237164 -0.1973455 -0.44029194 0.08620025 0.5395506 -0.17815606
-0.42614344 0.3982114 0.37915018 0.5507062 0.09756097 0.50525236 0.22616266 -0.18052192
0.22669008 0.06163396 0.027373068 0.5612735 0.39603552 0.3277438 0.26603076 -0.4067109
-0.05438014 -0.5972207 -0.24047859 -0.00247611 -0.04546951 -0.105545424 -0.33998576 -0.20004585
0.33948833 0.13287018 -0.4620135 -0.4308937 0.35723317 0.6485194 -0.21219514 0.114082664
0.18788372 -0.01153442 -0.55875605 0.14487211 -0.47243556 0.53669024 -0.46288064 0.53505933
-0.005817995 0.4727429 0.34650242 0.026940532 0.70110327 0.043069117 -0.28948578 -0.087297894
-0.64195454 -0.23038426 0.48043308 0.07039879 -0.5342716 0.19755611 -0.28921777 -0.63836193
-0.55985475 -0.22166164 0.0051977104 -0.29955673 0.41226876 -0.3437707 -0.060408227 -0.27274507
0.23002845 0.37047878 -0.42863277 0.36387977 0.58478343 -0.32722244 -0.2684063 0.10400266
-0.32374096 -0.08283283 0.25003445 0.63020605 0.14051837 0.53255874 -0.45588487 -0.30772948

conv1.bias f4 [32]
00000000: f5e2 0ebf 1acb e6be f732 df3e c5c2 183e
00000010: c13f 93be e3e2 153e 65dd 563e 66b6 0e3b
00000020: 16ad eebe cfba c3bd b2c1 16bf 8118 363d
00000030: 087b 5ebc 28d4 0bbf 9dd6 f8be e675 53bc
00000040: 6bfa e4bd 12cd 0b3f facb 92be 8f89 5e3e
00000050: b5fe 9ebc f6d1 613d 3cc7 5fbe 3fb5 433e
00000060: 26ac c8be a621 30be ca85 213e 276b ed3e
00000070: ec00 133f 3b2a 843d faeb 05bf 0913 c4bd
-0.5581506 -0.4507683 0.4359357 0.14918049 -0.28759578 0.14637332 0.20982893 0.0021776198
-0.4661643 -0.09557115 -0.58889306 0.044456962 -0.013579138 -0.546206 -0.48601237 -0.012906527
-0.11180576 0.5460979 -0.28671247 0.21732162 -0.019408563 0.055131875 -0.21853346 0.19112109
-0.3919384 -0.17200336 0.15773693 0.46370813 0.5742328 0.06453367 -0.52313197 -0.09573943

bn1.weight f4 [32]
00000000: faa3 8a3f 0b14 783f d599 823f 353d 853f
00000010: 20bc 863f a234 883f 621e 8d3f 552b ae3f
00000020: 2c23 a23f c5be 8e3f d895 8b3f 3201 823f
00000030: 3595 7f3f f70d cf3f 2c21 763f 5c5c 843f
00000040: 7cca 6a3f 52ae 873f 5d17 923f 6972 8a3f
00000050: a835 843f 692a 813f aded 8b3f 76e7 653f
00000060: abf1 823f 358f 803f 13e5 833f 3091 7e3f
00000070: 0cb1 673f 5dbf 7e3f c936 993f d84a 663f
1.0831292 0.96905583 1.0203196 1.0409304 1.0526161 1.0641062 1.1024897 1.3606974
1.2666984 1.1151968 1.0905104 1.0156615 0.99837047 1.6176137 0.96144366 1.0340686
0.91715217 1.0600073 1.141338 1.0816165 1.0328875 1.0091068 1.0931908 0.89806306
1.0230001 1.0043703 1.0304283 0.9944029 0.9050453 0.9951075 1.1969844 0.8995795

bn1.bias f4 [32]
00000000: ec0d 2d3c a113 cbbd aa5e e33a 4989 c6bd
00000010: 783d bf3d 237b adbd 6974 3e3d c17c f73d
00000020: 5f67 9a3d 2f98 693d ec04 f03c c50b 2f3c
00000030: 0cec 53bd 8a4b b73b 276b 23be 2d40 5a3d
00000040: 4ec7 8c3c 09b7 e13a a62f 583e 2ae9 6c3d
00000050: c426 213e 3400 bd3c 39c8 3c3d b604 c43b
00000060: cd5b ad3c 9db2 373e b386 923d c0dc 093d
00000070: 56a7 1d3d 121e ae3b e7d3 fe3c a5ce 013d
0.010562401 -0.09915853 0.0017346938 -0.09694154 0.09337896 -0.08470752 0.046497736 0.12084342
0.07539248 0.0570299 0.029299222 0.010683958 -0.051738784 0.0055937218 -0.15958844 0.05328386
0.01718488 0.0017220686 0.21111926 0.05783955 0.15737444 0.023071386 0.046089385 0.005982007
0.021161938 0.1793923 0.07154598 0.03365779 0.038489662 0.0053136433 0.031106902 0.031691212

bn1.running_mean f4 [32]
00000000: 20e2 0ebf 2ece e5be 22f6 dc3e e36f 1c3e
00000010: 348f 95be 7563 163e 06c6 573e 3497 483b
00000020: a55e edbe bb9d c8bd 9215 16bf a27a 283d
00000030: 6aac 54bc 3c49 0bbf db76 f8be 5854 36bc
00000040: 2837 e1bd ad3f 0c3f d1df 93be 8ff2 633e
00000050: c7f6 a5bc 4642 5c3d 0a9c 63be 1044 423e
00000060: 2fcd c8be ee89 2cbe f625 203e e673 ee3e
00000070: e32c 133f 74d9 813d 8125 06bf 6f69 c1bd
-0.5581379 -0.44883865 0.43156534 0.15277056 -0.29210818 0.14686377 0.21071634 0.0030607702
-0.4636127 -0.0979571 -0.58626664 0.041132577 -0.01298056 -0.5440862 -0.4852818 -0.011128508
-0.10996848 0.5478466 -0.28881696 0.22260498 -0.020259274 0.05377414 -0.22227493 0.18971276
-0.39219043 -0.16849491 0.15639481 0.46572798 0.57490367 0.06340304 -0.52400976 -0.09443938

bn1.running_var f4 [32]
00000000: 8027 c43d 8679 1d3f 1c2f 0c3e f914 3f3e
00000010: 6e04 d33e 8565 913e 1742 d13e 8168 a53e
00000020: 8ffb 5e3d 0857 033f 9626 5f3e 4aac cf3e
00000030: 98a3 b73d c4c0 1f3e e1bc e83e b700 ec3e
00000040: a9db 7d3e 49f1 c13e b710 ec3e 3124 a63e
00000050: 26fa 0e3f 2e82 ce3e fcbb df3e f2fc cc3e
00000060: d105 b53e d4f9 973e 7f56 c93d 6bd9 b93e
00000070: d0b3 ff3e 4b03 dc3d 68bf d53e 0a18 0c3f
0.095778465 0.61513555 0.13689846 0.18660344 0.41214317 0.28397766 0.40870735 0.32306293
0.054439124 0.51304674 0.21792063 0.40561134 0.0896675 0.15600878 0.45456603 0.46094295
0.24790825 0.37879398 0.46106502 0.32449487 0.55850446 0.40333694 0.43698108 0.40036732
0.35356 0.2968279 0.09830951 0.3629869 0.49941874 0.107428156 0.41747594 0.5472418

fc1.weight f4 [128, 128]
00000000: b3e4 9c3c 7bee b7bd 6538 a03d 50e9 afbd
00000010: 4270 58bd 2697 3f3c 5306 813d 92b2 18be
00000020: 716f 13bc 9531 2c3c f4bf 7d3d ddbf 7c3d
00000030: 463d 85bc b1fb 9d3d dd49 b6bd c870 35be
00000040: e032 693d fa09 1abd b992 debb 9486 8fbd
00000050: a08d db3d ff81 323c e985 eabd 7cd8 f4bd
00000060: f869 adbd 5141 f5bd 17bc 0c3d e1f1 533c
00000070: d64d 983d f5ea e83b 7db4 9cbc 73d2 023c
00000080: 2224 cb3d 2625 c3bc e994 06bc c672 e63c
00000090: c608 6f3d 1823 5b3d 43a9 67bd ff7e 98bd
000000a0: 871c 58bd ed21 9a3d 8950 d7bc c3b3 5bbc
000000b0: ac57 c8bc 6fd6 93bd 908c 113d a2c5 44be
000000c0: 9028 173d 223b a5bd 0883 fbbd 8733 5fbd
000000d0: 54a0 2dbd 79b6 5bbe 6914 dd3c 39fc d5bd
000000e0: 270b 233e cea9 b1bb 73f6 31bd 6dea 70be
000000f0: 1e32 1e3d f901 f23d 72f1 be3d 097f aabd
00000100: e2af f83b 8e5a 28bd e60e ad3d 2817 143d
00000110: 4e37 623e f474 3e3c 4859 8d3d a9bd dbbc
00000120: 8c19 003d f8d0 a43e a9ec c63d 7eff 5cbe
00000130: 4bc9 7c3d 997c 4f3c f329 34be e426 dfbc
00000140: 9e69 073d c64b 003d d128 2e3e 707b 053d
00000150: f358 25bd 7b49 023d 1325 0bbe 2347 30be
00000160: 4d61 823d dbb7 0dbe aa21 053e c2eb 65bd
00000170: c123 03bd 8c47 c7bd f397 87bc e2b3 fbbb
00000180: b93f f03c f755 13bd 0368 563c d4c1 64be
00000190: 3f34 8d3d cd41 9a3c ee53 863d 67f5 21be
000001a0: ecb8 003e 7e6a 513d 5fa2 03be 387e 9cbe
000001b0: 59bb d03c a70c 4abd 05b9 9bbc 7d1a 93bb
000001c0: 69c8 8f3b 5054 f1bb 7d73 b9bc 837b 38bc
000001d0: 684b d73c f308 243c 641c 5a3d 591a a83b
000001e0: fe69 393d 2be3 a43c 24f7 b43c 93aa ac3c
000001f0: 064c 453c 517b 8f3d 028d 5e3d e214 49bd
00000200: 4d78 603e 0f47 0ebd dd0c 473d 9056 94bd
00000210: 9072 4ebc 0cf8 953c 7280 73bb d96a 56be
00000220: ec3e 863d e3d8 96bd 3935 8dbc 6de8 11bd
00000230: 53f1 103d 11e7 7bbc 2c5f 00be 91b0 c2bd
00000240: 19fa 623d 55f7 ae3d 131a e3bd 2d8c aabd
00000250: 1c9a 333e a654 d0bc 2fb0 d0bd a24d 2fbe
00000260: 9496 833c 8168 113d 21b1 17bb 92bc f63b
00000270: d307 7c3d 61a6 813e ac13 233e 8f06 ae3a
00000280: 7cea 69bb b309 9cbc 2aa6 d63d e446 bbbc
00000290: 8853 dabc 3299 2cbd 0d10 05bd 663b 80bc
000002a0: 5198 6a3d a4c4 f0bc 8c48 653e fb5b 9f3c
000002b0: bccd b93d 9e92 1e3d 1dc0 24bd 02f9 3cbe
000002c0: 490f 82bc 84a3 a6bd 12cc 4fbe e630 febd
000002d0: 683e a0bc 76dd 443e 259a aebc cf53 54be
000002e0: 4fec 3b3e 9015 1c3c 85f3 05bd fad9 abbd
000002f0: 6da1 41bd 405a 4cbd f59a 563d 228e 42bd
00000300: 8c70 e4bc 6cdd c6bd 2505 a13d 6400 98bb
00000310: 3f77 233e 92ce 57bc e8aa 993b 305a 1e3d
00000320: 1f02 ef3d b001 f53d 4fce 38bd 68d0 ccbd
00000330: 5c0f 943d 99c7 de3d ca7d 773d 1c33 6cbd
00000340: 67aa 333d 22ab 6d3e d4ab ba3d 7a34 03bd
00000350: a9b8 173d 0862 a3bb 8bfa 1bbe 9fae 37be
00000360: 0eb4 fcbd b55c ebbc 384f 313e 4663 dfbc
00000370: 593f cdbc a19b 99be 64d5 a13e eb9d 36bd
00000380: dbc5 9f3d 164a 263d 2472 2ebd 110b 5dbe
00000390: 01e8 253d 2033 ba3d 414c febc afc0 12be
000003a0: abf7 ed3d cb18 cebc cffb b2bd 72e5 3bbe
000003b0: ec55 963d cbbe 9dbd c83d 6f3d dc54 89bc
000003c0: 2dea b5bc 7d5b f03c b405 213e 9f22 08bd
000003d0: 7c93 7f3d 4f7a 12be f530 8dbd 63ea 9bbd
000003e0: 7b48 39bd 7dcf 383d 259c 173d 9f59 113d
000003f0: 4f65 b93b e95b 8cbc a438 df3d 9959 20bd
0.019152021 -0.089810334 0.078232564 -0.08589423 -0.052841432 0.011693751 0.063000344 -0.14911869
-0.008998738 0.010509868 0.06195064 0.061706413 -0.016264569 0.07714022 -0.08900807 -0.17718804
0.056933284 -0.03760717 -0.006792393 -0.070080906 0.10720372 0.010895251 -0.114513226 -0.119553536
-0.084674776 -0.11975349 0.034359064 0.012936086 0.07436721 0.007108087 -0.019129032 0.007984745
0.09919001 -0.023821425 -0.008214214 0.0281309 0.058357976 0.053500265 -0.056557905 -0.074460976
-0.05276158 0.07526002 -0.02628352 -0.013409558 -0.024455868 -0.07218634 0.03553444 -0.19216016
0.036903918 -0.08067919 -0.122808516 -0.0544925 -0.04238923 -0.21456327 0.026987271 -0.10448498
0.15922223 -0.0054218536 -0.043447923 -0.23526926 0.038622014 0.118167825 0.09323396 -0.08325011
0.0075893262 -0.041101985 0.08450107 0.036154896 0.2209141 0.0116245635 0.06901795 -0.026823835
0.031274363 0.3219068 0.09713108 -0.21581838 0.061715405 0.012663984 -0.17594127 -0.027240224
0.03305971 0.031322263 0.17007758 0.032588422 -0.04036803 0.031808358 -0.13588361 -0.17214637
0.06366215 -0.13839667 0.13001123 -0.05613304 -0.03201652 -0.09730443 -0.016551947 -0.007681356
0.02932726 -0.035970654 0.013086322 -0.22339565 0.06894731 0.018830204 0.06558977 -0.1581627
0.12570542 0.05112695 -0.12854908 -0.30565047 0.02547996 -0.049328472 -0.019009123 -0.0044892416
0.0043879044 -0.007364787 -0.022638077 -0.011259916 0.026281074 0.010011899 0.05324973 0.005130094
0.045267098 0.020127853 0.022090502 0.02107743 0.012042051 0.070059426 0.054333694 -0.04909218
0.21920891 -0.034735736 0.04859625 -0.07243073 -0.012600556 0.018306755 -0.0037155417 -0.20939197
0.0655497 -0.073655866 -0.017237293 -0.03562205 0.035386395 -0.015374915 -0.12536305 -0.095063336
0.055414293 0.085432686 -0.11088958 -0.08327518 0.17539257 -0.025430989 -0.10189854 -0.17119458
0.016063012 0.035500053 -0.0023146349 0.0075298036 0.0615309 0.2532225 0.15925473 0.0013277101
-0.0035692742 -0.019047594 0.10480912 -0.022860952 -0.026651159 -0.042138286 -0.03248601 -0.015653323
0.057274166 -0.02939064 0.22390956 0.01945304 0.09072444 0.038714044 -0.040222276 -0.18454364
-0.01587643 -0.08136657 -0.2029269 -0.124116704 -0.019561008 0.19225106 -0.021313736 -0.20735095
0.18351863 0.009526625 -0.03270294 -0.08391185 -0.04727309 -0.049890757 0.052393872 -0.04749883
-0.027885698 -0.097102016 0.07862309 -0.0046387184 0.15963458 -0.013171809 0.004689563 0.03866023
0.116703264 0.119632125 -0.045118626 -0.10000688 0.07229492 0.10877914 0.060422696 -0.05766593
0.04386368 0.23209813 0.09114805 -0.032032467 0.03704134 -0.0049860515 -0.15232293 -0.17937706
-0.1233903 -0.02873073 0.17315376 -0.027269017 -0.02505462 -0.30001548 0.31608117 -0.044584196
0.0780141 0.040597998 -0.04258932 -0.21586253 0.04050446 0.090917826 -0.03104222 -0.14331315
0.116195045 -0.025158307 -0.08739435 -0.18349245 0.07340607 -0.077024065 0.05840853 -0.016764097
-0.02220639 0.0293405 0.15724832 -0.033236142 0.06239651 -0.1430447 -0.068941034 -0.07613065
-0.04523514 0.04511975 0.037014145 0.03548586 0.005657829 -0.01713367 0.10899475 -0.039147947

fc1.bias f4 [128]
00000000: ef8d f43d e628 0a3d f21f dc3d af1e 353d
00000010: 276c 6b3c 63e4 cf3d d838 89be 3f11 c33d
00000020: dadd b93c e114 b63c 9c3f 0f3e 0251 0e3e
00000030: 8337 e33d 7e53 9c3d 53d0 e43d c671 613d
00000040: e4ad a93d bbb4 59bd 3beb b7bd 4c00 aa3d
00000050: 447b e53d fb19 193e 6e8c 9a3c 38a5 363e
00000060: 65d5 673b 169e 3d3c a9a4 e2bc fdcf 713d
00000070: 4eee 5e3d 3650 ae3d dd39 c63d 226b df3d
00000080: e6d5 243d 18c3 193d 2f01 4d3d 6361 953d
00000090: 2d09 cf3d fd98 3f3e 43d2 163e 25a8 fc3c
000000a0: 2a3b ff3d feca 5a3e f058 f83d fdc3 793d
000000b0: 638b d53d e13d 09be 42a0 f73d 1f88 34bd
000000c0: f9a6 ab3d 5b19 f23c 4af3 583c e19a 173e
000000d0: 1b16 b2bb 5a42 1f3e 8249 ad3d 4e15 363e
000000e0: 17d5 273e d4df 243e 09ba f33b be2f 153d
000000f0: 0996 4abc 877c bb3d bb42 3d3d 27de 9f3c
00000100: 08f4 573e b524 843d 0b9e 473e 43c7 173d
00000110: 088a cabc f263 813d 4df6 4b3c f7c2 003d
00000120: d19a a2bb c34f 2c3e 012b aa3d 3724 f83d
00000130: fa39 bb3d 186d fd3d 8ecf 033c 7b5e 1fbd
00000140: 7ca3 47bd 989a ce3c ecea 2ebd 0886 da3d
00000150: e58e be3d bcb5 143e f2d2 8cbb ad8c 363c
00000160: 7ceb a73d 8ec7 8b3d 8d0f 343d 669c 003e
00000170: 8b25 dc3c 8bdb 76bd 5e06 25bd 0452 a7bc
00000180: e43a 4bbc d5b4 aa3d 966f 6b3c c436 c7bd
00000190: 754f 9b3b 8e30 b13d ac12 3fbd 4833 29bb
000001a0: 66b3 283e 9469 c2bd 69fe 273d 6d54 403d
000001b0: c7d3 b43d 0293 543c 7ec0 b23c cb67 893c
000001c0: a68d da3d 72a8 b93d e805 1d3e 549c 253e
000001d0: 522d ea3d 14aa cdbc 98b6 083d e4f1 a83b
000001e0: 2acc e03d 5a8d 1e3e ecf0 233c 5814 5dbc
000001f0: 72b8 013e 5f79 733c 2cdc c93c ea5f e93d
0.11941134 0.03373041 0.107482806 0.044218715 0.014369047 0.10150983 -0.2680118 0.09524774
0.022688795 0.022226753 0.13989109 0.1389809 0.110945724 0.07633112 0.11172547 0.055040143
0.0828512 -0.053150874 -0.089804135 0.08300838 0.11205152 0.14951317 0.01886579 0.17836463
0.0035374996 0.011573335 -0.027666407 0.059036244 0.054426484 0.08511393 0.09679005 0.10909106
0.040243052 0.03753957 0.050049957 0.07293966 0.10109172 0.18710704 0.14728646 0.030841896
0.124624565 0.21366498 0.121263385 0.060977925 0.104269765 -0.13402511 0.120911136 -0.044075128
0.08381457 0.029553106 0.013241598 0.14805175 -0.005434764 0.15552655 0.08461286 0.17781565
0.16389881 0.16101009 0.0074379486 0.036422484 -0.012364873 0.09154611 0.046206217 0.01951511
0.21089184 0.06452314 0.19493882 0.037055265 -0.024724022 0.06317891 0.012448859 0.031435933
-0.004962303 0.16827302 0.083089836 0.121162824 0.091419175 0.123743236 0.00804509 -0.038908463
-0.048739895 0.0252202 -0.042704508 0.10670096 0.09304599 0.14522451 -0.0042976076 0.011141938
0.08199212 0.068251714 0.043960143 0.12559661 0.02687337 -0.060267966 -0.040289275 -0.02042485
-0.012404177 0.08335272 0.014369866 -0.097272426 0.0047396966 0.08651839 -0.046648666 -0.002581792
0.16474685 -0.09492794 0.04101411 0.046955515 0.08829456 0.0129745025 0.021820303 0.016773125
0.106715485 0.090653315 0.15334284 0.16172916 0.114344254 -0.025105514 0.03337726 0.0051557887
0.10976441 0.15483609 0.010006171 -0.01349362 0.12668017 0.01486048 0.024641119 0.11395247

fc2.weight f4 [2, 128]
00000000: 23cd be3b cbe6 633e cd17 023c ee6b 283e
00000010: cb1b 813d c9aa 363e 0343 b8bd be2d 12bd
00000020: ad03 65bd 18fb 35bc f24f 423d 08ba 293e
00000030: c420 863c 624e 79bc 4786 1a3d fbbd 743b
00000040: 0b70 f3bd bd79 3bbd 852f 243d 493c 383e
00000050: 4128 c3bc c57c e13c 2aef a5bd c384 563e
00000060: 1946 6fbd 5e98 84bd a4c8 1cbd 125d c93d
00000070: 0a90 c23c 779f 873d bd52 c43d 0ee6 263e
00000080: 7f43 dd3d 834d 80bd 71cd a5bd 37e0 09be
00000090: a608 033e 2909 14bd d29b a43d 801b 593d
000000a0: 7f4d 233e deb5 23be 54a8 1a3e da72 1e3d
000000b0: a7c5 4f3d 7850 56be b7d3 cb3c f56b bc3c
000000c0: 6263 2dbb e173 e3bd c031 053d c90b 513d
000000d0: aa0f 4f3e fdf6 07be c87f 763e ef81 0abe
000000e0: 7155 433c 5f0a 37be 4b48 efbd 1547 c1bd
000000f0: eaa4 b7bd 96de c03d b3f5 603e f109 d4bd
00000100: 1453 a4bd 8f4e e63d de63 673e cddc 76bd
00000110: 429c febd 7684 093e f645 22bd caf4 12bd
00000120: 9194 d1bd 705f 633e 5481 e83d eb5a 81bd
00000130: 677f a43d fddc b3bd c615 b43b 6fa4 19be
00000140: 4481 6cbd e46a 643d 111f 2bbe e140 6238
00000150: ed0e fd3d a083 9e3d 8aee 8ebd 586e 0c3d
00000160: 7414 513e 9a75 283e fb01 8b3c b2af 833d
00000170: ee9f 133e b6a9 5abd e853 bd3d c743 bcbc
00000180: 210f 2a3c d92b bfbc c79a e0bd 63dd 71bd
00000190: 85cb 0f3e 43ba d43d 19f5 5cbd 7212 5ebd
000001a0: 6191 d0bd dc75 46be 7044 8d3c d195 0e3e
000001b0: b93d 033c 6aaa bf3d cdb9 c4bd 4ac5 c4bd
000001c0: f1d3 96bd e3ac 143d 2195 ed3d 37bf 313d
000001d0: 1266 08be 7f00 47bd 726a 07be 7546 96bc
000001e0: 2de4 b13d f5ed f2bd 46bf dc3d 40f6 193e
000001f0: 5da8 083e fd63 223e b477 1bbe 2a67 0d3e
00000200: 29ec 94bd e303 59be 7302 adbd 33f7 55bd
00000210: 8d0d 133d 20fc 28be 6f1e 813e 5c56 b53d
00000220: a4c1 d63c 39b1 de3d b751 edbd 9c7a 36bd
00000230: 23ae 8fbd ce81 6f3c 7657 03be ae81 f13d
00000240: e0f3 01bc c66b d63d cfff cabc 5a7f debc
00000250: d26a b23d 98d1 dfbd 9aef 85bc c503 a2bd
00000260: 8314 2739 d767 5e3d c4d1 063d 1fd0 8bbd
00000270: 164b 893d 9c97 08be 26c2 20be ac0d a3bd
00000280: c37b 02be 2160 4d3a 497d 9dbc 4dae 393d
00000290: e518 07be ea88 653d fb2b 7cbd 411f 73bd
000002a0: f8e9 1bbe dcfd 013d 23e5 debd 8a3a a43d
000002b0: 8a99 0cbe 1d0c 113e c0d6 a7bd b35b 063c
000002c0: 369e 0a3e 69e3 1c3d 0267 afbd acc7 31be
000002d0: 840c 35be 0a96 813c 7e23 5abe 8913 af3d
000002e0: d6b4 d43d def4 d23d 7466 3d3e 7901 953c
000002f0: d606 913b 7156 a2bd 1183 d2bd f148 cd3c
00000300: 06a7 b53c 05cd eabb c980 afbd b062 18bd
00000310: 813e bf3d e740 f0bd 56fe 81bc ad94 1c3d
00000320: cd85 0f3d 19ad 3fbe 8d34 3fbd b620 f03c
00000330: 1e04 af3a 60c1 203d d7b2 9ebd 54ad 313e
00000340: 59fd 483d f2af 06bd d4f4 5e3c c951 363d
00000350: 6625 36be 7ca7 a33c 514c ca3d 8f55 54be
00000360: 392d 05be 9902 5dbd 9833 8b3d 815d a3bd
00000370: 0e93 ddbd 12bd 0bbc 95c0 17be 539d 03bc
00000380: 3551 643d a4e3 1e3d ecac 593d b763 ad3c
00000390: 8615 a8bd 8b1c 07be 17d7 8f3d 6015 ad3b
000003a0: 806d 9e3d 108a 403e f150 edbd 3c80 2bba
000003b0: 12ac e03d 6d6d 3cbe 3af2 18bc dfdf 213d
000003c0: 74b8 213e 2b92 05be 99b3 b9bc 4a8e 2abe
000003d0: d2f8 9f3d 3d9d c13d 57bc 6dbb 88d0 023d
000003e0: 6b07 f7bd 8cbe 073d efcc a1bd c971 d1bd
000003f0: 529d 4fbd a403 0cbe 438c 4f3e a08c 00be
0.005822794 0.2225601 0.007940245 0.16447422 0.06304129 0.17838587 -0.089971565 -0.035688154
-0.05591171 -0.011107229 0.047439523 0.16574872 0.016373046 -0.015216442 0.037725713 0.0037344682
-0.11886605 -0.045770396 0.04008438 0.17991747 -0.023822905 0.027525315 -0.081022575 0.20949082
-0.05841646 -0.06474374 -0.038277283 0.09832205 0.023750324 0.066222124 0.095860936 0.16298696
0.108038895 -0.06264784 -0.080958255 -0.13464437 0.12796268 -0.03614155 0.08037533 0.05300474
0.15947531 -0.15987346 0.15103275 0.03868375 0.050725605 -0.20929134 0.024881227 0.023000697
-0.0026456942 -0.111060865 0.03251815 0.05103663 0.20220819 -0.13277812 0.24072182 -0.13526128
0.011922226 -0.1787505 -0.11683711 -0.09437386 -0.08967002 0.09417455 0.21968727 -0.10353459
-0.080236584 0.112454526 0.2259669 -0.060269166 -0.124321476 0.13429436 -0.0396175 -0.03587798
-0.10233415 0.22204375 0.113527924 -0.06316169 0.080321126 -0.087823845 0.0054957597 -0.15004133
-0.057740465 0.055766 -0.1671107 5.3943022e-05 0.123563625 0.07739949 -0.069790915 0.03428492
0.20417958 0.16451111 0.016968718 0.064299956 0.14416477 -0.053384505 0.092445195 -0.022981538
0.010379584 -0.023336338 -0.109670214 -0.05904902 0.1404248 0.10387089 -0.05394468 -0.05421681
-0.10183979 -0.19380897 0.017244548 0.13924338 0.008010321 0.09358676 -0.09605751 -0.096079424
-0.07364643 0.03629769 0.1160071 0.043395247 -0.13320187 -0.048584457 -0.132242 -0.018344143
0.08686099 -0.11861793 0.1077867 0.15035343 0.13345475 0.15858455 -0.15182382 0.13808885
-0.072716065 -0.21192889 -0.08447733 -0.0522377 0.035901595 -0.16502428 0.2521853 0.08854362
0.026215382 0.10873646 -0.115878515 -0.044550523 -0.07015636 0.01461835 -0.12826332 0.117923126
-0.0079316795 0.10469775 -0.024780182 -0.027160335 0.087117806 -0.10928649 -0.016349602 -0.07910875
0.00015934002 0.05429825 0.03291489 -0.06826805 0.06703775 -0.13339084 -0.15699062 -0.07961592
-0.12742524 0.0007834454 -0.01922478 0.04533224 -0.1319309 0.056038775 -0.06156538 -0.059355978
-0.15225971 0.03173624 -0.10883548 0.08018978 -0.13730446 0.14164777 -0.08195257 0.008200574
0.13536915 0.038302813 -0.08564569 -0.17361325 -0.17680556 0.015818615 -0.21302602 0.08548648
0.10386054 0.10300611 0.18496114 0.018189179 0.0044258637 -0.07926644 -0.10278905 0.025059195
0.02217437 -0.0071655535 -0.08569486 -0.03720349 0.093380935 -0.11731129 -0.015868347 0.038227726
0.03503971 -0.18718375 -0.046680976 0.029312473 0.0013352667 0.039246917 -0.07748955 0.17351276
0.049069736 -0.03288264 0.013608176 0.04451159 -0.17787704 0.019977324 0.098778374 -0.20735763
-0.13005532 -0.053957555 0.0679695 -0.07976819 -0.10819064 -0.008528965 -0.14819558 -0.0080331145
0.055741508 0.038791314 0.053143427 0.021165712 -0.0820723 -0.13194482 0.07023447 0.005282089
0.07735729 0.18802667 -0.11587704 -0.0006542241 0.1097032 -0.18401118 -0.009335095 0.03952014
0.1579302 -0.1304404 -0.022668647 -0.16655841 0.078111306 0.09453819 -0.003627559 0.031937152
-0.12061962 0.033140704 -0.07900416 -0.10226781 -0.05068714 -0.13673264 0.2026835 -0.12553644

fc2.bias f4 [2]
00000000: a6d0 87bd e630 243e
-0.066315934 0.16034278
